models/trained_model.pth (torch, 293591 bytes, 6 tensors)

conv1.0.weight f4 [16, 1, 3, 3]
0.093604974 -0.05024433 0.12549485 0.3537017 -0.22541422 0.13000529 0.33870962 0.31110737
0.16766918 0.29745972 0.27115947 -0.14731357 0.12929915 -0.19340636 0.033379946 0.13256475
0.24639599 0.15679346 0.26060984 -0.29215693 -0.10957134 -0.09743194 0.17524323 -0.1457814
-0.11238162 -0.31519136 -0.14246468 -0.04815469 -0.07285253 0.06021022 0.2110491 0.27275553
-0.108803906 0.2855516 -0.15676025 0.29496488 0.19349179 -0.068797946 -0.08717226 0.32061887
-0.1723719 0.10344664 -0.17846557 0.2362319 0.31191736 0.07329212 -0.2700897 -0.29516488
0.26062855 -0.19116993 -0.14772107 -0.2221151 0.24028909 -0.003243573 -0.20035489 -0.122238025
0.2068117 -0.1133633 0.12585531 0.2914082 0.19123097 -0.1677554 0.30137184 -0.11974181
-0.23168816 0.020157598 0.05973619 0.07797449 0.2999205 0.19908758 0.104433514 -0.33024132
0.003916936 -0.3083059 0.14436568 0.049175482 0.09382629 0.11262865 -0.21739288 -0.21466418
-0.31196833 0.06903816 -0.18063132 -0.008662517 -0.010776138 0.2293729 -0.0002936527 -0.013134172
-0.23010835 -0.2808487 0.2710693 0.27571538 0.2664603 0.06716726 -0.07162746 0.22579092
-0.2893164 0.20245859 -0.06771427 0.30957016 0.3427512 0.32694283 -0.07286961 0.2021942
0.11827257 -0.18880926 0.076783076 0.30478388 0.32208458 -0.04877355 -0.0034833173 -0.23712222
0.074693345 0.30794424 -0.30084684 -0.10098491 0.12195821 0.060238354 -0.022805454 0.06801611
0.1839565 -0.33311206 -0.06216799 0.09426827 -0.0052920394 -0.26861262 0.017699644 0.22496665
0.16552284 -0.2638049 0.082418084 0.2046537 -0.12100024 -0.17746633 0.051541798 0.1426484
-0.098175906 0.04141375 0.33635643 0.17349023 -0.2897595 0.20838617 -0.056665596 -0.2681347
00000000: f7b3 bf3d 00cd 4dbd b981 003e 6418 b53e
00000010: fcd2 66be 1b20 053e 596b ad3e 7749 9f3e
00000020: 78b1 2b3e a44c 983e 6ad5 8a3e 5ed9 16be
00000030: ff66 043e 510c 46be 69b9 083d 0ebf 073e
00000040: 3b4f 7c3e 778e 203e a76e 853e 9895 95be
00000050: f066 e0bd 668a c7bd f672 333e b847 15be
00000060: 5628 e6bd c360 a1be 43e2 11be da3d 45bd
00000070: b533 95bd fe9e 763d 411d 583e 9da6 8b3e
00000080: 95d4 debd d233 923e c285 20be a305 973e
00000090: b622 463e f0e5 8cbd 5f87 b2bd 2828 a43e
000000a0: 4282 30be d5db d33d aebf 36be c6e6 713e
000000b0: a2b3 9f3e 2e1a 963d 3249 8abe da1f 97be
000000c0: 1b71 853e 0dc2 43be 3144 17be 2472 63be
000000d0: 580e 763e 2092 54bb d529 4dbe ee57 fabd
000000e0: 72c6 533e 052b e8bd 37e0 003e 7533 953e
000000f0: 0dd2 433e 12c8 2bbe 694d 9a3e 323b f5bd
00000100: a93f 6dbe 8c21 a53c efad 743d 17b1 9f3d
00000110: 2e8f 993e 9ddd 4b3e 3de1 d53d 6415 a9be
00000120: a459 803b 45da 9dbe 99d4 133e 3b6c 493d
00000130: ff27 c03d daa9 e63d 3d9c 5ebe edd0 5bbe
00000140: 50ba 9fbe e163 8d3d 6bf7 38be 3bed 0dbc
00000150: 668e 30bc bbe0 6a3e 66f5 99b9 b630 57bc
00000160: 86a1 6bbe 67cb 8fbe 98c9 8a3e 912a 8d3e
00000170: 7c6d 883e fd8e 893d 6bb1 92bd bc35 673e
00000180: 4721 94be 4e51 4f3e c7ad 8abd fb7f 9e3e
00000190: 167d af3e 0d65 a73e a93c 95bd ff0b 4f3e
000001a0: e438 f23d 3757 41be 7240 9d3d a20c 9c3e
000001b0: 45e8 a43e c6c6 47bd 5e48 64bb 2bd0 72be
000001c0: d3f8 983d deaa 9d3e 9908 9abe 2dd1 cebd
000001d0: 3ac5 f93d 7ebc 763d 81d2 babc 084c 8b3d
000001e0: 185f 3c3e aa8d aabe dda3 7ebd b90f c13d
000001f0: d868 adbb 9887 89be d8fe 903c a85d 663e
00000200: d27e 293e 7011 87be d0ca a83d bd90 513e
00000210: f9ce f7bd bcb9 35be 7e1d 533d 6c12 123e
00000220: 7310 c9bd 77a1 293d e936 ac3e 6ca7 313e
00000230: 5b5b 94be 2f63 553e 2f1a 68bd f448 89be

conv1.0.bias f4 [16]
0.06965719 0.120029636 -0.2605241 -0.31485233 -0.2844129 -0.021961259 -0.21621767 -0.16306822
0.16726604 0.19768207 -0.12900725 0.1651326 -0.20762265 -0.13167985 0.030676464 -0.06805036
00000000: 6ea8 8e3d 19d2 f53d 6a63 85be 5334 a1be
00000010: 919e 91be 19e8 b3bc 2a68 5dbe 5bfb 26be
00000020: ca47 2b3e 2b6d 4a3e 7a1a 04be 8518 293e
00000030: 089b 54be 15d7 06be 354d fb3c fd5d 8bbd

conv2.0.weight f4 [32, 16, 5, 5]
0.034649756 -9.371115e-05 -0.012347802 -0.03698878 0.034796063 0.047397934 -0.008362196 0.034286562
-0.0030915304 0.031244738 0.024415769 0.00880661 0.048993748 -0.03921381 -0.009257986 -0.04658118
-0.008966767 -0.009718837 -0.0047191116 0.049396127 -0.031074353 -0.014095131 0.03793428 0.04104605
0.008852614 -0.007660231 -0.023872612 0.016306154 -0.03540556 0.046015713 0.022768086 -0.044260286
-0.018103315 -0.008314961 0.042089168 -0.0356708 0.040570743 -0.042522192 -0.011402267 0.049760606
0.039281003 0.045134217 -0.022609139 0.0038824463 0.020260883 -0.018707883 -0.03117723 -0.0052450644
-0.011648318 0.021997822 -0.016112298 -0.026118195 0.04402935 0.035428453 -0.023746556 -0.037007682
-0.017754752 -0.016105764 0.007859997 -0.036798716 -0.010974336 0.031527314 -0.034934573 0.02217276
0.033780653 -0.049423404 0.0045843534 -0.032265775 0.011836521 0.04483283 -0.0048026666 0.041843552
-0.010153037 -0.04679069 0.033162896 -0.030524923 -0.02529635 0.0021697194 -0.014732121 -0.033217505
0.023898646 -0.003583788 0.038880676 -0.03885326 -0.01854704 -0.030479886 0.022094712 -0.023438796
-0.026674325 -0.013910855 -0.023908798 -0.018860087 0.02778689 0.03648261 0.025786327 0.04009623
-0.009724242 0.003013751 0.03917381 -0.023147203 -0.007867425 -0.022419887 -0.030573223 0.021554835
-0.043618456 -0.017863695 -0.008419055 0.015151862 -0.03287727 0.025951114 -0.017888302 -0.00081808295
0.011783278 0.038457092 -0.000671026 -0.044463202 0.009332774 0.046198446 -0.020059578 0.04877476
0.023552012 0.03497239 -0.0421813 0.014144043 -0.041418884 0.0017511937 -0.01713975 0.04242762
0.018941846 0.039322082 0.041638177 0.026862944 0.022675995 -0.04377872 -0.0254482 -0.045788098
0.00517083 -0.0015379762 0.039612807 0.012548069 -0.040674448 0.02682233 -0.045878608 0.009788252
-0.0316828 0.007998983 0.010165214 -0.022740662 -0.026086891 -0.036453348 -0.015206535 0.014148749
0.030967962 0.04582274 0.028634585 0.03304784 -0.04965621 0.04175719 0.0052253017 0.01211917
0.044322055 0.005217323 -0.011173669 -0.029653935 -0.041731596 -0.046821337 0.03279784 0.04685717
0.0033539147 -0.045570582 0.032401413 0.040648207 0.01315102 -0.047113173 0.0502688 -0.027870756
0.002032738 0.042282607 -0.033874877 0.03246452 -0.0016337628 -0.01847359 -0.0010704449 -0.023592105
0.01885221 0.035886563 0.047303714 0.04716734 -0.013961525 0.013039363 0.013279094 0.006423291
-0.044064302 0.041650638 -0.03145723 -0.030990317 0.004365652 -0.008007057 -0.048353005 0.025274174
0.046991274 0.007878458 -0.0083309 0.044989437 0.046460524 -0.031813294 -0.005529948 0.02443859
-0.020830058 -0.001868434 0.027676225 -0.038581003 -0.048667047 -0.015040747 -0.008109703 0.036203343
-0.0022837294 -0.01965894 -0.004944049 -0.027148787 -0.035581328 -0.005288071 -0.020724228 0.0032144347
-0.04242141 0.02290443 0.017542882 0.0452619 0.007492958 0.028706502 0.043564398 -0.04745083
0.044408526 0.027331095 -0.009258887 -0.015490946 -0.012586452 0.03280567 -0.0053155925 0.0050870366
0.04460445 0.025327513 -0.020759039 -0.032081146 0.027925203 -0.0008115766 0.012757181 -0.009971935
-0.042104926 0.023447514 -0.029285537 -0.04193456 0.021755686 0.030920109 0.036977418 -0.04222352
00000000: e7ec 0d3d ca86 c4b8 6f4e 4abc 8c81 17bd
00000010: 5186 0e3d 5624 423d 9801 09bc 1170 0c3d
00000020: 469b 4abb f7f4 ff3c 9403 c83c 9949 103c
00000030: abad 483d a99e 20bd cfae 17bc e8cb 3ebd
00000040: 59e9 12bc c23b 1fbc c7a2 9abb 9853 4a3d
00000050: a48f febc 44ef 66bc fa60 1b3d e71f 283d
00000060: 8e0a 113c ad02 fbbb 7f90 c3bc 7c94 853c
00000070: 6c05 11bd f97a 3c3d 2384 ba3c 464a 35bd
00000080: 674d 94bc 793b 08bc b165 2c3d 8b1b 12bd
00000090: 822d 263d c02b 2ebd 93d0 3abc c7d1 4b3d
000000a0: 1ee5 203d a8de 383d cd36 b9bc a470 7e3b
000000b0: 27fa a53c 4641 99bc 6467 ffbc cade abbb
000000c0: 96d8 3ebc c734 b43c f0fd 83bc d3f5 d5bc
000000d0: 1f58 343d 6d1d 113d 2388 c2bc 5e95 17bd
000000e0: 6a72 91bc 3cf0 83bc 38c7 003c 40ba 16bd
000000f0: b4cd 33bc c922 013d 8e17 0fbd a6a3 b53c
00000100: 955d 0a3d 3270 4abd 5838 963b 1e29 04bd
00000110: f8ed 413c a1a2 373d b05f 9dbb 2564 2b3d
00000120: ec58 26bc 98a7 3fbd d1d5 073d 670f fabc
00000130: 4a3a cfbc da31 0e3b fe5e 71bc 140f 08bd
00000140: 18c7 c33c fcdd 6abb 5841 1f3d 9924 1fbd
00000150: f6ef 97bc f4b0 f9bc f8ff b43c b802 c0bc
00000160: 1d84 dabc 5bea 63bc 62dc c3bc 7880 9abc
00000170: 55a1 e33c ca6e 153d d93d d33c f23b 243d
00000180: 6d52 1fbc 5a82 453b b874 203d 349f bdbc
00000190: 5fe6 00bc e9a9 b7bc b274 fabc c493 b03c
000001a0: 44a9 32bd e256 92bc 13f0 09bc 843f 783c
000001b0: 51aa 06bd 6e97 d43c 7d8a 92bc 9e74 56ba
000001c0: a60e 413c 2f85 1d3d cbe7 2fba 0c1f 36bd
000001d0: 7ee8 183c 953a 3d3d fc53 a4bc 0bc8 473d
000001e0: 26f0 c03c 353f 0f3d 4dc6 2cbd 6bbc 673c
000001f0: d9a6 29bd 4f88 e53a a968 8cbc 96c8 2d3d
00000200: ee2b 9b3c 3110 213d cb8c 2a3d ad0f dc3c
00000210: 02c3 b93c 5151 33bd be78 d0bc 4d8c 3bbd
00000220: 1170 a93b eb95 c9ba 0a41 223d 6a96 4d3c
00000230: 409a 26bd 81ba db3c 35eb 3bbd e85e 203c
00000240: d3c5 01bd 2b0e 033c ff8b 263c a04a babc
00000250: 2db4 d5bc 1b50 15bd d524 79bc 28d0 673c
00000260: 86b0 fd3c a0b0 3b3d 1493 ea3c 2c5d 073d
00000270: 4f64 4bbd 9609 2b3d 0239 ab3b 7c8f 463c
00000280: 0b8b 353d 14f6 aa3b c411 37bc cfec f2bc
00000290: c0ee 2abd bbc7 3fbd 0757 063d 4eed 3f3d
000002a0: 5acd 5b3b 38a8 3abd 58b7 043d bc7e 263d
000002b0: 6077 573c bef9 40bd a8e6 4d3d 3651 e4bc
000002c0: af37 053b 8730 2d3d 62c0 0abd 84f9 043d
000002d0: fc23 d6ba ed55 97bc 2c4e 8cba 3b44 c1bc
000002e0: f36f 9a3c cafd 123d 8ac1 413d 8a32 413d
000002f0: e1be 64bc 0da3 553c 8f90 593c 787a d23b
00000300: c57c 34bd dc99 2a3d 4cd9 00bd 68df fdbc
00000310: be0d 8f3b 0830 03bc cd0d 46bd c90b cf3c
00000320: ec79 403d a614 013c 547e 08bc d846 383d
00000330: 644d 3e3d a84e 02bd 9134 b5bb 7033 c83c
00000340: cca3 aabc 3ee6 f4ba 40b9 e23c 1d07 1ebd
00000350: 1957 47bd 776d 76bc 8fde 04bc f549 143d
00000360: 9faa 15bb c90b a1bc b001 a2bb 2267 debc
00000370: babd 11bd 8e47 adbb dbc5 a9bc 44a9 523b
00000380: 13c2 2dbd 12a2 bb3c 17b6 8f3c 8b64 393d
00000390: 7d87 f53b e629 eb3c 9570 323d cd5b 42bd
000003a0: b7e5 353d 76e5 df3c 96b2 17bc bdcd 7dbc
000003b0: 6837 4ebc 3d5f 063d 6c2e aebb 28b1 a63b
000003c0: 28b3 363d a57b cf3c dc0e aabc 8567 03bd
000003d0: 65c3 e43c fcbf 54ba 7f03 513c 5461 23bc
000003e0: 3776 2cbd 0015 c03c 39e8 efbc 93c3 2bbd
000003f0: fb38 b23c 2b4c fd3c a275 173d 92f2 2cbd

conv2.0.bias f4 [32]
-0.016795808 -0.023627808 -0.028798994 -0.029911147 -1.5425933e-06 -0.017049031 0.06451905 0.028068919
0.022020882 -0.0424019 0.0013310224 0.014047139 0.03548563 -0.0485928 -0.033989508 -0.035795603
0.006396688 -0.015662735 0.039822835 0.093255945 -0.007702014 -0.05049053 0.00906459 -0.0434076
-0.0115745235 -0.01731566 -0.03367465 0.02022917 -0.016647514 -0.019384857 0.06934354 0.021823004
00000000: 5d97 89bc 1b8f c1bc deeb ebbc 3908 f5bc
00000010: 1a0b cfb5 69aa 8bbc 9022 843d caf0 e53c
00000020: 2365 b43c 9dad 2dbd b375 ae3a f925 663c
00000030: 6159 113d 3e09 47bd 9538 0bbd 699e 12bd
00000040: 4f9b d13b 234f 80bc 451d 233d f9fc be3d
00000050: 2d61 fcbb 28cf 4ebd a583 143c 2bcc 31bd
00000060: 12a3 3dbc 92d9 8dbc 6eee 09bd a5b7 a53c
00000070: 5e60 88bc fecc 9ebc fc03 8e3d 28c6 b23c

linear.weight f4 [13, 4608]
-0.012088911 0.013474592 -0.0016296777 0.0007781795 -0.00052517926 -0.0083066635 -0.01363577 -0.008422466
0.008080065 0.0102263205 -0.0003996832 -0.00056543853 -0.013695989 -0.007219829 0.0033635315 0.0020194727
-0.015924184 -0.01524618 -0.0045536663 -0.0131071145 0.013125201 0.0125846155 0.014262524 -0.004423064
-0.008790517 0.00969898 0.0110128615 -0.004602677 -0.0020809327 -0.0057372274 0.0022546698 -0.006563067
0.00011373403 0.008444994 -0.00712756 -0.010364656 -0.0035791083 -0.011822991 -0.0069239186 -0.018689321
0.0028571931 -0.014798952 -0.0069435504 -0.0063239965 0.0075138086 0.0062539238 -0.0046848226 0.005414174
-0.013584967 0.012365333 0.010887443 0.0070140427 -0.0059584873 -0.0058358354 -0.011573632 -0.0012001502
-0.0044536004 -0.004333775 -0.014122571 0.0003436474 -0.016259799 -0.01132729 0.0033659772 0.008637071
-0.009452331 -0.013673819 0.0041098353 -0.015221185 -0.0006971335 -0.017086618 -0.0036257433 -0.010257294
-0.012016242 0.0026839308 0.010391666 -0.002716345 0.0083936965 0.0036485028 0.0023420171 -0.001101549
-0.00227807 -0.016038066 0.002800487 0.012300895 -0.016148979 0.0018775513 0.00174571 0.0006526978
0.009058927 0.0016788321 -0.009000106 -0.020615874 -0.0012912892 -0.005949895 4.290425e-05 -0.012080741
-0.008452659 0.007258488 -0.016537378 -0.007450115 -0.0046674544 -0.005084538 0.0049898387 -0.017602071
-0.016403103 -0.017674819 0.00044560584 0.007546087 0.004963474 0.00074801815 -0.008775708 -0.016220594
0.006475666 0.0017971409 -0.013840546 -0.0036266276 0.0014573883 -0.00030286793 0.0044523412 -0.0064534163
0.009528133 -0.0016118382 -0.014888595 0.0033256377 0.008698644 -0.0059975535 -0.017002525 -0.015944248
-0.0039997906 0.0073218103 -0.00413101 0.00021788637 -0.015033804 0.0061209337 0.0043303543 0.002600579
0.0011890583 -0.016289527 0.0100278845 0.0024400402 -0.01774725 0.004665287 -0.0002753921 -0.0026193508
0.0028420237 0.0062423022 -0.013852726 -0.002943902 0.0028851833 0.004218798 0.007535159 -0.013608585
0.0062449304 -0.006351256 0.009157462 -0.011130338 -0.006157416 -0.0011258228 -0.006302921 0.0052544856
-0.009410225 0.0011502346 -0.0072864452 0.004846965 -0.0033403225 -5.3173862e-05 -0.0048332475 -0.0037833278
0.009843561 0.013614095 0.0068408726 -0.004974264 0.014082608 -0.00028442335 -0.014489409 0.012411978
-0.009614516 -0.008939114 -0.011914333 0.005076246 0.008244432 0.010275609 0.0014358773 -0.00769522
0.0015687712 0.0031917447 0.0037802951 0.011405293 0.0029922125 -0.01228575 0.006699114 0.007655581
0.0053531015 0.00785503 -0.0022451852 -0.0038432206 -0.009641472 -0.0010736001 0.010577251 -0.0063054017
0.013878367 -0.009165108 0.008496065 0.0113823665 0.014360624 -0.009064052 0.013976147 0.012203767
-0.009822419 0.008244534 0.003849734 -0.010159494 0.002134148 -0.0075095934 0.004229643 0.0030980774
-0.0032726713 -0.0038343426 -0.00035848372 0.01087306 -0.005359504 -0.0067933914 -0.0036960344 -0.010830539
0.00048846164 -0.003163 -0.0006589673 -0.004797446 -0.014003918 0.0070755007 -0.01037837 0.012836371
0.001328572 -0.0030108835 -0.0071865474 0.0076346206 0.0077659576 0.009481076 0.007516829 -0.015474879
-0.0064671515 2.3655437e-05 -0.0089725545 0.0022250628 0.008003113 0.0008149384 0.014159354 0.013061092
0.010831421 -0.008997223 0.0087732505 0.0047462005 -0.001218522 0.0064766677 -0.0036380994 -0.00077446696
00000000: 9110 46bc 89c4 5c3c e99a d5ba befe 4b3a
00000010: 2fac 09ba ac18 08bc 9168 5fbc 62fe 09bc
00000020: 4062 043c 4c8c 273c 928c d1b9 f039 14ba
00000030: 2465 60bc 5194 ecbb b26e 5c3b 2159 043b
00000040: 6f73 82bc 1dcb 79bc ec36 95bb 39bf 56bc
00000050: 150b 573c b42f 4e3c 5dad 693c 5aef 90bb
00000060: 1a06 10bc 78e8 1e3c 4a6f 343c 0ed2 96bb
00000070: 4260 08bb 5aff bbbb 15c3 133b ff0e d7bb
00000080: 7e84 ee38 df5c 0a3c 4f8e e9bb 85d0 29bc
00000090: 798f 6abb 38b5 41bc 0ae2 e2bb 591a 99bc
000000a0: bf3f 3b3b 4e77 72bc b986 e3bb 8739 cfbb
000000b0: 6536 f63b b7ed cc3b 2483 99bb 6269 b13b
000000c0: 7b93 5ebc f797 4a3c 3f61 323c 0ed6 e53b
000000d0: 6a3f c3bb 893a bfbb 559f 3dbc 5c4e 9dba
000000e0: 82ef 91bb 5702 8ebb 5b62 67bc 932b b439
000000f0: 4533 85bc 1996 39bc ba97 5c3b 8082 0d3c
00000100: f3dd 1abc 2708 60bc ccab 863b 4762 79bc
00000110: d6bf 36ba 3cf9 8bbc e19d 6dbb 360e 28bc
00000120: c6df 44bc e3e4 2f3b ce41 2a3c b504 32bb
00000130: b785 093c b81b 6f3b 877c 193b da61 90ba
00000140: ac4b 15bb 4362 83bc 6088 373b b189 493c
00000150: dd4a 84bc 2b18 f63a 4fd0 e43a cf19 2b3a
00000160: e56b 143c 420c dc3a 2e75 13bc 9fe2 a8bc
00000170: 7a40 a9ba 56f7 c2bb 16f4 3338 4dee 45bc
00000180: 057d 0abc 9cd8 ed3b 6579 87bc 1820 f4bb
00000190: 72f1 98bb 329c a6bb cd81 a33b 3832 90bc
000001a0: cd5f 86bc c8ca 90bc 34a0 e939 2a45 f73b
000001b0: a3a4 a23b a616 443a fdc7 0fbc 0de1 84bc
000001c0: d331 d43b 0b8e eb3a 75c3 62bc b7ac 6dbb
000001d0: d605 bf3a 3fca 9eb9 f2e4 913b 2e77 d3bb
000001e0: e31b 1c3c 5144 d3ba 4bef 73bc f1f2 593b
000001f0: c284 0e3c 2087 c4bb e148 8bbc 839d 82bc
00000200: ad10 83bb cceb ef3b 6c5d 87bb 6d78 6439
00000210: 5850 76bc 1d92 c83b a5e5 8d3b 7a6e 2a3b
00000220: 2dda 9b3a 9d71 85bc ff4b 243c 15e9 1f3b
00000230: ae62 91bc 44df 983b 8162 90b9 6aa9 2bbb
00000240: 3f41 3a3b 3a8c cc3b 8bf6 62bc 7bee 40bb
00000250: 5815 3d3b d83d 8a3b 7fe9 f63b 8bf6 5ebc
00000260: 46a2 cc3b 321e d0bb 2e09 163c 055c 36bc
00000270: 26c4 c9bb 5890 93ba bc88 cebb d22d ac3b
00000280: 582d 1abc 78c3 963a 22c3 eebb 4ad3 9e3b
00000290: 50e9 5abb 0007 5fb8 3860 9ebb b5f1 77bb
000002a0: e346 213c a70d 5f3c 6629 e03b 27ff a2bb
000002b0: bdba 663c a81e 95b9 fc64 6dbc 9c5b 4b3c
000002c0: 3486 1dbc 5d75 12bc 5634 43bc a356 a63b
000002d0: a713 073c 075b 283c 0c34 bc3a 2f28 fcbb
000002e0: 3a9f cd3a 972c 513b d4be 773b 44dd 3a3c
000002f0: ff18 443b 2c4a 49bc 3e84 db3b abdb fa3b
00000300: 1269 af3b 62b2 003c f523 13bb 8bde 7bbb
00000310: 44f7 1dbc 0bb8 8cba 354c 2d3c 8b9d cebb
00000320: 1762 633c 4029 16bc 1433 0b3c 1b7d 3a3c
00000330: d348 6b3c 6481 14bc 36fc 643c 4ff2 473c
00000340: 36ee 20bc 1514 073c d24b 7c3b 0274 26bc
00000350: 10dd 0b3b 0913 f6bb d198 8a3b 1d09 4b3b
00000360: 507a 56bb 9849 7bbb dff2 bbb9 eb24 323c
00000370: c79e afbb 199b debb 2b39 72bb 9372 31bc
00000380: 1b0c 003a 564a 4fbb 8cbe 2cba e533 9dbb
00000390: b070 65bc 9ad9 e73b 0a0a 2abc a44f 523c
000003a0: 7b23 ae3a 3e52 45bb 217d ebbb d72b fa3b
000003b0: 9379 fe3b 8456 1b3c bb4f f63b 598a 7dbc
000003c0: 66ea d3bb aa6f c637 9f01 13bc 5cd2 113b
000003d0: 7d1f 033c 97a1 553a a3fc 673c 31fe 553c
000003e0: 4676 313c 1769 13bc aebd 0f3c 0486 9b3b
000003f0: d0b6 9fba 3a3a d43b 2e6d 6ebb 9905 4bba

linear.bias f4 [13]
0.054620314 -0.008585264 0.002970306 0.013859359 0.012146626 0.004846375 0.0060093533 -0.010984023
-0.008769049 -0.021121686 0.0021604656 -0.020199453 -0.019146912
00000000: 8db9 5f3d 35a9 0cbc 77a9 423b 5d12 633c
00000010: a402 473c 57ce 9e3b 1cea c43b 55f6 33bc
00000020: 0fac 0fbc 6307 adbc 9996 0d3b 5379 a5bc
00000030: fcd9 9cbc
